meta_info_def {
  stripped_op_list {
    op {
      name: "Add"
      input_arg {
        name: "x"
        type_attr: "T"
      }
      input_arg {
        name: "y"
        type_attr: "T"
      }
      output_arg {
        name: "z"
        type_attr: "T"
      }
      attr {
        name: "T"
        type: "type"
        allowed_values {
          list {
            type: DT_HALF
            type: DT_FLOAT
            type: DT_DOUBLE
            type: DT_UINT8
            type: DT_INT8
            type: DT_INT16
            type: DT_INT32
            type: DT_INT64
            type: DT_COMPLEX64
            type: DT_COMPLEX128
            type: DT_STRING
          }
        }
      }
    }
    op {
      name: "ApplyGradientDescent"
      input_arg {
        name: "var"
        type_attr: "T"
        is_ref: true
      }
      input_arg {
        name: "alpha"
        type_attr: "T"
      }
      input_arg {
        name: "delta"
        type_attr: "T"
      }
      output_arg {
        name: "out"
        type_attr: "T"
        is_ref: true
      }
      attr {
        name: "T"
        type: "type"
        allowed_values {
          list {
            type: DT_FLOAT
            type: DT_DOUBLE
            type: DT_INT64
            type: DT_INT32
            type: DT_UINT8
            type: DT_UINT16
            type: DT_INT16
            type: DT_INT8
            type: DT_COMPLEX64
            type: DT_COMPLEX128
            type: DT_QINT8
            type: DT_QUINT8
            type: DT_QINT32
            type: DT_HALF
          }
        }
      }
      attr {
        name: "use_locking"
        type: "bool"
        default_value {
          b: false
        }
      }
    }
    op {
      name: "ArgMax"
      input_arg {
        name: "input"
        type_attr: "T"
      }
      input_arg {
        name: "dimension"
        type_attr: "Tidx"
      }
      output_arg {
        name: "output"
        type_attr: "output_type"
      }
      attr {
        name: "T"
        type: "type"
        allowed_values {
          list {
            type: DT_FLOAT
            type: DT_DOUBLE
            type: DT_INT64
            type: DT_INT32
            type: DT_UINT8
            type: DT_UINT16
            type: DT_INT16
            type: DT_INT8
            type: DT_COMPLEX64
            type: DT_COMPLEX128
            type: DT_QINT8
            type: DT_QUINT8
            type: DT_QINT32
            type: DT_HALF
          }
        }
      }
      attr {
        name: "Tidx"
        type: "type"
        default_value {
          type: DT_INT32
        }
        allowed_values {
          list {
            type: DT_INT32
            type: DT_INT64
          }
        }
      }
      attr {
        name: "output_type"
        type: "type"
        default_value {
          type: DT_INT64
        }
        allowed_values {
          list {
            type: DT_INT32
            type: DT_INT64
          }
        }
      }
    }
    op {
      name: "Assign"
      input_arg {
        name: "ref"
        type_attr: "T"
        is_ref: true
      }
      input_arg {
        name: "value"
        type_attr: "T"
      }
      output_arg {
        name: "output_ref"
        type_attr: "T"
        is_ref: true
      }
      attr {
        name: "T"
        type: "type"
      }
      attr {
        name: "validate_shape"
        type: "bool"
        default_value {
          b: true
        }
      }
      attr {
        name: "use_locking"
        type: "bool"
        default_value {
          b: true
        }
      }
      allows_uninitialized_input: true
    }
    op {
      name: "BroadcastGradientArgs"
      input_arg {
        name: "s0"
        type_attr: "T"
      }
      input_arg {
        name: "s1"
        type_attr: "T"
      }
      output_arg {
        name: "r0"
        type_attr: "T"
      }
      output_arg {
        name: "r1"
        type_attr: "T"
      }
      attr {
        name: "T"
        type: "type"
        default_value {
          type: DT_INT32
        }
        allowed_values {
          list {
            type: DT_INT32
            type: DT_INT64
          }
        }
      }
    }
    op {
      name: "Cast"
      input_arg {
        name: "x"
        type_attr: "SrcT"
      }
      output_arg {
        name: "y"
        type_attr: "DstT"
      }
      attr {
        name: "SrcT"
        type: "type"
      }
      attr {
        name: "DstT"
        type: "type"
      }
    }
    op {
      name: "Const"
      output_arg {
        name: "output"
        type_attr: "dtype"
      }
      attr {
        name: "value"
        type: "tensor"
      }
      attr {
        name: "dtype"
        type: "type"
      }
    }
    op {
      name: "DynamicStitch"
      input_arg {
        name: "indices"
        type: DT_INT32
        number_attr: "N"
      }
      input_arg {
        name: "data"
        type_attr: "T"
        number_attr: "N"
      }
      output_arg {
        name: "merged"
        type_attr: "T"
      }
      attr {
        name: "N"
        type: "int"
        has_minimum: true
        minimum: 1
      }
      attr {
        name: "T"
        type: "type"
      }
    }
    op {
      name: "Equal"
      input_arg {
        name: "x"
        type_attr: "T"
      }
      input_arg {
        name: "y"
        type_attr: "T"
      }
      output_arg {
        name: "z"
        type: DT_BOOL
      }
      attr {
        name: "T"
        type: "type"
        allowed_values {
          list {
            type: DT_HALF
            type: DT_FLOAT
            type: DT_DOUBLE
            type: DT_UINT8
            type: DT_INT8
            type: DT_INT16
            type: DT_INT32
            type: DT_INT64
            type: DT_COMPLEX64
            type: DT_QUINT8
            type: DT_QINT8
            type: DT_QINT32
            type: DT_STRING
            type: DT_BOOL
            type: DT_COMPLEX128
          }
        }
      }
      is_commutative: true
    }
    op {
      name: "Fill"
      input_arg {
        name: "dims"
        type: DT_INT32
      }
      input_arg {
        name: "value"
        type_attr: "T"
      }
      output_arg {
        name: "output"
        type_attr: "T"
      }
      attr {
        name: "T"
        type: "type"
      }
    }
    op {
      name: "FloorDiv"
      input_arg {
        name: "x"
        type_attr: "T"
      }
      input_arg {
        name: "y"
        type_attr: "T"
      }
      output_arg {
        name: "z"
        type_attr: "T"
      }
      attr {
        name: "T"
        type: "type"
        allowed_values {
          list {
            type: DT_HALF
            type: DT_FLOAT
            type: DT_DOUBLE
            type: DT_UINT8
            type: DT_INT8
            type: DT_UINT16
            type: DT_INT16
            type: DT_INT32
            type: DT_INT64
            type: DT_COMPLEX64
            type: DT_COMPLEX128
          }
        }
      }
    }
    op {
      name: "FloorMod"
      input_arg {
        name: "x"
        type_attr: "T"
      }
      input_arg {
        name: "y"
        type_attr: "T"
      }
      output_arg {
        name: "z"
        type_attr: "T"
      }
      attr {
        name: "T"
        type: "type"
        allowed_values {
          list {
            type: DT_INT32
            type: DT_INT64
            type: DT_FLOAT
            type: DT_DOUBLE
          }
        }
      }
    }
    op {
      name: "Identity"
      input_arg {
        name: "input"
        type_attr: "T"
      }
      output_arg {
        name: "output"
        type_attr: "T"
      }
      attr {
        name: "T"
        type: "type"
      }
    }
    op {
      name: "Log"
      input_arg {
        name: "x"
        type_attr: "T"
      }
      output_arg {
        name: "y"
        type_attr: "T"
      }
      attr {
        name: "T"
        type: "type"
        allowed_values {
          list {
            type: DT_HALF
            type: DT_FLOAT
            type: DT_DOUBLE
            type: DT_COMPLEX64
            type: DT_COMPLEX128
          }
        }
      }
    }
    op {
      name: "MatMul"
      input_arg {
        name: "a"
        type_attr: "T"
      }
      input_arg {
        name: "b"
        type_attr: "T"
      }
      output_arg {
        name: "product"
        type_attr: "T"
      }
      attr {
        name: "transpose_a"
        type: "bool"
        default_value {
          b: false
        }
      }
      attr {
        name: "transpose_b"
        type: "bool"
        default_value {
          b: false
        }
      }
      attr {
        name: "T"
        type: "type"
        allowed_values {
          list {
            type: DT_HALF
            type: DT_FLOAT
            type: DT_DOUBLE
            type: DT_INT32
            type: DT_COMPLEX64
            type: DT_COMPLEX128
          }
        }
      }
    }
    op {
      name: "Maximum"
      input_arg {
        name: "x"
        type_attr: "T"
      }
      input_arg {
        name: "y"
        type_attr: "T"
      }
      output_arg {
        name: "z"
        type_attr: "T"
      }
      attr {
        name: "T"
        type: "type"
        allowed_values {
          list {
            type: DT_HALF
            type: DT_FLOAT
            type: DT_DOUBLE
            type: DT_INT32
            type: DT_INT64
          }
        }
      }
      is_commutative: true
    }
    op {
      name: "Mean"
      input_arg {
        name: "input"
        type_attr: "T"
      }
      input_arg {
        name: "reduction_indices"
        type_attr: "Tidx"
      }
      output_arg {
        name: "output"
        type_attr: "T"
      }
      attr {
        name: "keep_dims"
        type: "bool"
        default_value {
          b: false
        }
      }
      attr {
        name: "T"
        type: "type"
        allowed_values {
          list {
            type: DT_FLOAT
            type: DT_DOUBLE
            type: DT_INT64
            type: DT_INT32
            type: DT_UINT8
            type: DT_UINT16
            type: DT_INT16
            type: DT_INT8
            type: DT_COMPLEX64
            type: DT_COMPLEX128
            type: DT_QINT8
            type: DT_QUINT8
            type: DT_QINT32
            type: DT_HALF
          }
        }
      }
      attr {
        name: "Tidx"
        type: "type"
        default_value {
          type: DT_INT32
        }
        allowed_values {
          list {
            type: DT_INT32
            type: DT_INT64
          }
        }
      }
    }
    op {
      name: "Mul"
      input_arg {
        name: "x"
        type_attr: "T"
      }
      input_arg {
        name: "y"
        type_attr: "T"
      }
      output_arg {
        name: "z"
        type_attr: "T"
      }
      attr {
        name: "T"
        type: "type"
        allowed_values {
          list {
            type: DT_HALF
            type: DT_FLOAT
            type: DT_DOUBLE
            type: DT_UINT8
            type: DT_INT8
            type: DT_UINT16
            type: DT_INT16
            type: DT_INT32
            type: DT_INT64
            type: DT_COMPLEX64
            type: DT_COMPLEX128
          }
        }
      }
      is_commutative: true
    }
    op {
      name: "Neg"
      input_arg {
        name: "x"
        type_attr: "T"
      }
      output_arg {
        name: "y"
        type_attr: "T"
      }
      attr {
        name: "T"
        type: "type"
        allowed_values {
          list {
            type: DT_HALF
            type: DT_FLOAT
            type: DT_DOUBLE
            type: DT_INT32
            type: DT_INT64
            type: DT_COMPLEX64
            type: DT_COMPLEX128
          }
        }
      }
    }
    op {
      name: "NoOp"
    }
    op {
      name: "Placeholder"
      output_arg {
        name: "output"
        type_attr: "dtype"
      }
      attr {
        name: "dtype"
        type: "type"
      }
      attr {
        name: "shape"
        type: "shape"
        default_value {
          shape {
            unknown_rank: true
          }
        }
      }
    }
    op {
      name: "Prod"
      input_arg {
        name: "input"
        type_attr: "T"
      }
      input_arg {
        name: "reduction_indices"
        type_attr: "Tidx"
      }
      output_arg {
        name: "output"
        type_attr: "T"
      }
      attr {
        name: "keep_dims"
        type: "bool"
        default_value {
          b: false
        }
      }
      attr {
        name: "T"
        type: "type"
        allowed_values {
          list {
            type: DT_FLOAT
            type: DT_DOUBLE
            type: DT_INT64
            type: DT_INT32
            type: DT_UINT8
            type: DT_UINT16
            type: DT_INT16
            type: DT_INT8
            type: DT_COMPLEX64
            type: DT_COMPLEX128
            type: DT_QINT8
            type: DT_QUINT8
            type: DT_QINT32
            type: DT_HALF
          }
        }
      }
      attr {
        name: "Tidx"
        type: "type"
        default_value {
          type: DT_INT32
        }
        allowed_values {
          list {
            type: DT_INT32
            type: DT_INT64
          }
        }
      }
    }
    op {
      name: "Range"
      input_arg {
        name: "start"
        type_attr: "Tidx"
      }
      input_arg {
        name: "limit"
        type_attr: "Tidx"
      }
      input_arg {
        name: "delta"
        type_attr: "Tidx"
      }
      output_arg {
        name: "output"
        type_attr: "Tidx"
      }
      attr {
        name: "Tidx"
        type: "type"
        default_value {
          type: DT_INT32
        }
        allowed_values {
          list {
            type: DT_FLOAT
            type: DT_DOUBLE
            type: DT_INT32
            type: DT_INT64
          }
        }
      }
    }
    op {
      name: "RealDiv"
      input_arg {
        name: "x"
        type_attr: "T"
      }
      input_arg {
        name: "y"
        type_attr: "T"
      }
      output_arg {
        name: "z"
        type_attr: "T"
      }
      attr {
        name: "T"
        type: "type"
        allowed_values {
          list {
            type: DT_HALF
            type: DT_FLOAT
            type: DT_DOUBLE
            type: DT_UINT8
            type: DT_INT8
            type: DT_UINT16
            type: DT_INT16
            type: DT_INT32
            type: DT_INT64
            type: DT_COMPLEX64
            type: DT_COMPLEX128
          }
        }
      }
    }
    op {
      name: "Reciprocal"
      input_arg {
        name: "x"
        type_attr: "T"
      }
      output_arg {
        name: "y"
        type_attr: "T"
      }
      attr {
        name: "T"
        type: "type"
        allowed_values {
          list {
            type: DT_HALF
            type: DT_FLOAT
            type: DT_DOUBLE
            type: DT_INT32
            type: DT_INT64
            type: DT_COMPLEX64
            type: DT_COMPLEX128
          }
        }
      }
    }
    op {
      name: "Reshape"
      input_arg {
        name: "tensor"
        type_attr: "T"
      }
      input_arg {
        name: "shape"
        type_attr: "Tshape"
      }
      output_arg {
        name: "output"
        type_attr: "T"
      }
      attr {
        name: "T"
        type: "type"
      }
      attr {
        name: "Tshape"
        type: "type"
        default_value {
          type: DT_INT32
        }
        allowed_values {
          list {
            type: DT_INT32
            type: DT_INT64
          }
        }
      }
    }
    op {
      name: "Shape"
      input_arg {
        name: "input"
        type_attr: "T"
      }
      output_arg {
        name: "output"
        type_attr: "out_type"
      }
      attr {
        name: "T"
        type: "type"
      }
      attr {
        name: "out_type"
        type: "type"
        default_value {
          type: DT_INT32
        }
        allowed_values {
          list {
            type: DT_INT32
            type: DT_INT64
          }
        }
      }
    }
    op {
      name: "Softmax"
      input_arg {
        name: "logits"
        type_attr: "T"
      }
      output_arg {
        name: "softmax"
        type_attr: "T"
      }
      attr {
        name: "T"
        type: "type"
        allowed_values {
          list {
            type: DT_HALF
            type: DT_FLOAT
            type: DT_DOUBLE
          }
        }
      }
    }
    op {
      name: "Sub"
      input_arg {
        name: "x"
        type_attr: "T"
      }
      input_arg {
        name: "y"
        type_attr: "T"
      }
      output_arg {
        name: "z"
        type_attr: "T"
      }
      attr {
        name: "T"
        type: "type"
        allowed_values {
          list {
            type: DT_HALF
            type: DT_FLOAT
            type: DT_DOUBLE
            type: DT_UINT8
            type: DT_INT8
            type: DT_UINT16
            type: DT_INT16
            type: DT_INT32
            type: DT_INT64
            type: DT_COMPLEX64
            type: DT_COMPLEX128
          }
        }
      }
    }
    op {
      name: "Sum"
      input_arg {
        name: "input"
        type_attr: "T"
      }
      input_arg {
        name: "reduction_indices"
        type_attr: "Tidx"
      }
      output_arg {
        name: "output"
        type_attr: "T"
      }
      attr {
        name: "keep_dims"
        type: "bool"
        default_value {
          b: false
        }
      }
      attr {
        name: "T"
        type: "type"
        allowed_values {
          list {
            type: DT_FLOAT
            type: DT_DOUBLE
            type: DT_INT64
            type: DT_INT32
            type: DT_UINT8
            type: DT_UINT16
            type: DT_INT16
            type: DT_INT8
            type: DT_COMPLEX64
            type: DT_COMPLEX128
            type: DT_QINT8
            type: DT_QUINT8
            type: DT_QINT32
            type: DT_HALF
          }
        }
      }
      attr {
        name: "Tidx"
        type: "type"
        default_value {
          type: DT_INT32
        }
        allowed_values {
          list {
            type: DT_INT32
            type: DT_INT64
          }
        }
      }
    }
    op {
      name: "Tile"
      input_arg {
        name: "input"
        type_attr: "T"
      }
      input_arg {
        name: "multiples"
        type_attr: "Tmultiples"
      }
      output_arg {
        name: "output"
        type_attr: "T"
      }
      attr {
        name: "T"
        type: "type"
      }
      attr {
        name: "Tmultiples"
        type: "type"
        default_value {
          type: DT_INT32
        }
        allowed_values {
          list {
            type: DT_INT32
            type: DT_INT64
          }
        }
      }
    }
    op {
      name: "VariableV2"
      output_arg {
        name: "ref"
        type_attr: "dtype"
        is_ref: true
      }
      attr {
        name: "shape"
        type: "shape"
      }
      attr {
        name: "dtype"
        type: "type"
      }
      attr {
        name: "container"
        type: "string"
        default_value {
          s: ""
        }
      }
      attr {
        name: "shared_name"
        type: "string"
        default_value {
          s: ""
        }
      }
      is_stateful: true
    }
  }
  tensorflow_version: "1.4.0"
  tensorflow_git_version: "b\'unknown\'"
}
graph_def {
  node {
    name: "Placeholder"
    op: "Placeholder"
    attr {
      key: "_output_shapes"
      value {
        list {
          shape {
            dim {
              size: -1
            }
            dim {
              size: 784
            }
          }
        }
      }
    }
    attr {
      key: "dtype"
      value {
        type: DT_FLOAT
      }
    }
    attr {
      key: "shape"
      value {
        shape {
          dim {
            size: -1
          }
          dim {
            size: 784
          }
        }
      }
    }
  }
  node {
    name: "zeros"
    op: "Const"
    attr {
      key: "_output_shapes"
      value {
        list {
          shape {
            dim {
              size: 784
            }
            dim {
              size: 10
            }
          }
        }
      }
    }
    attr {
      key: "dtype"
      value {
        type: DT_FLOAT
      }
    }
    attr {
      key: "value"
      value {
        tensor {
          dtype: DT_FLOAT
          tensor_shape {
            dim {
              size: 784
            }
            dim {
              size: 10
            }
          }
          float_val: 0.0
        }
      }
    }
  }
  node {
    name: "Variable"
    op: "VariableV2"
    attr {
      key: "_output_shapes"
      value {
        list {
          shape {
            dim {
              size: 784
            }
            dim {
              size: 10
            }
          }
        }
      }
    }
    attr {
      key: "container"
      value {
        s: ""
      }
    }
    attr {
      key: "dtype"
      value {
        type: DT_FLOAT
      }
    }
    attr {
      key: "shape"
      value {
        shape {
          dim {
            size: 784
          }
          dim {
            size: 10
          }
        }
      }
    }
    attr {
      key: "shared_name"
      value {
        s: ""
      }
    }
  }
  node {
    name: "Variable/Assign"
    op: "Assign"
    input: "Variable"
    input: "zeros"
    attr {
      key: "T"
      value {
        type: DT_FLOAT
      }
    }
    attr {
      key: "_class"
      value {
        list {
          s: "loc:@Variable"
        }
      }
    }
    attr {
      key: "_output_shapes"
      value {
        list {
          shape {
            dim {
              size: 784
            }
            dim {
              size: 10
            }
          }
        }
      }
    }
    attr {
      key: "use_locking"
      value {
        b: true
      }
    }
    attr {
      key: "validate_shape"
      value {
        b: true
      }
    }
  }
  node {
    name: "Variable/read"
    op: "Identity"
    input: "Variable"
    attr {
      key: "T"
      value {
        type: DT_FLOAT
      }
    }
    attr {
      key: "_class"
      value {
        list {
          s: "loc:@Variable"
        }
      }
    }
    attr {
      key: "_output_shapes"
      value {
        list {
          shape {
            dim {
              size: 784
            }
            dim {
              size: 10
            }
          }
        }
      }
    }
  }
  node {
    name: "zeros_1"
    op: "Const"
    attr {
      key: "_output_shapes"
      value {
        list {
          shape {
            dim {
              size: 10
            }
          }
        }
      }
    }
    attr {
      key: "dtype"
      value {
        type: DT_FLOAT
      }
    }
    attr {
      key: "value"
      value {
        tensor {
          dtype: DT_FLOAT
          tensor_shape {
            dim {
              size: 10
            }
          }
          float_val: 0.0
        }
      }
    }
  }
  node {
    name: "Variable_1"
    op: "VariableV2"
    attr {
      key: "_output_shapes"
      value {
        list {
          shape {
            dim {
              size: 10
            }
          }
        }
      }
    }
    attr {
      key: "container"
      value {
        s: ""
      }
    }
    attr {
      key: "dtype"
      value {
        type: DT_FLOAT
      }
    }
    attr {
      key: "shape"
      value {
        shape {
          dim {
            size: 10
          }
        }
      }
    }
    attr {
      key: "shared_name"
      value {
        s: ""
      }
    }
  }
  node {
    name: "Variable_1/Assign"
    op: "Assign"
    input: "Variable_1"
    input: "zeros_1"
    attr {
      key: "T"
      value {
        type: DT_FLOAT
      }
    }
    attr {
      key: "_class"
      value {
        list {
          s: "loc:@Variable_1"
        }
      }
    }
    attr {
      key: "_output_shapes"
      value {
        list {
          shape {
            dim {
              size: 10
            }
          }
        }
      }
    }
    attr {
      key: "use_locking"
      value {
        b: true
      }
    }
    attr {
      key: "validate_shape"
      value {
        b: true
      }
    }
  }
  node {
    name: "Variable_1/read"
    op: "Identity"
    input: "Variable_1"
    attr {
      key: "T"
      value {
        type: DT_FLOAT
      }
    }
    attr {
      key: "_class"
      value {
        list {
          s: "loc:@Variable_1"
        }
      }
    }
    attr {
      key: "_output_shapes"
      value {
        list {
          shape {
            dim {
              size: 10
            }
          }
        }
      }
    }
  }
  node {
    name: "MatMul"
    op: "MatMul"
    input: "Placeholder"
    input: "Variable/read"
    attr {
      key: "T"
      value {
        type: DT_FLOAT
      }
    }
    attr {
      key: "_output_shapes"
      value {
        list {
          shape {
            dim {
              size: -1
            }
            dim {
              size: 10
            }
          }
        }
      }
    }
    attr {
      key: "transpose_a"
      value {
        b: false
      }
    }
    attr {
      key: "transpose_b"
      value {
        b: false
      }
    }
  }
  node {
    name: "add"
    op: "Add"
    input: "MatMul"
    input: "Variable_1/read"
    attr {
      key: "T"
      value {
        type: DT_FLOAT
      }
    }
    attr {
      key: "_output_shapes"
      value {
        list {
          shape {
            dim {
              size: -1
            }
            dim {
              size: 10
            }
          }
        }
      }
    }
  }
  node {
    name: "Softmax"
    op: "Softmax"
    input: "add"
    attr {
      key: "T"
      value {
        type: DT_FLOAT
      }
    }
    attr {
      key: "_output_shapes"
      value {
        list {
          shape {
            dim {
              size: -1
            }
            dim {
              size: 10
            }
          }
        }
      }
    }
  }
  node {
    name: "Placeholder_1"
    op: "Placeholder"
    attr {
      key: "_output_shapes"
      value {
        list {
          shape {
            dim {
              size: -1
            }
            dim {
              size: 10
            }
          }
        }
      }
    }
    attr {
      key: "dtype"
      value {
        type: DT_FLOAT
      }
    }
    attr {
      key: "shape"
      value {
        shape {
          dim {
            size: -1
          }
          dim {
            size: 10
          }
        }
      }
    }
  }
  node {
    name: "Log"
    op: "Log"
    input: "Softmax"
    attr {
      key: "T"
      value {
        type: DT_FLOAT
      }
    }
    attr {
      key: "_output_shapes"
      value {
        list {
          shape {
            dim {
              size: -1
            }
            dim {
              size: 10
            }
          }
        }
      }
    }
  }
  node {
    name: "mul"
    op: "Mul"
    input: "Placeholder_1"
    input: "Log"
    attr {
      key: "T"
      value {
        type: DT_FLOAT
      }
    }
    attr {
      key: "_output_shapes"
      value {
        list {
          shape {
            dim {
              size: -1
            }
            dim {
              size: 10
            }
          }
        }
      }
    }
  }
  node {
    name: "Sum/reduction_indices"
    op: "Const"
    attr {
      key: "_output_shapes"
      value {
        list {
          shape {
            dim {
              size: 1
            }
          }
        }
      }
    }
    attr {
      key: "dtype"
      value {
        type: DT_INT32
      }
    }
    attr {
      key: "value"
      value {
        tensor {
          dtype: DT_INT32
          tensor_shape {
            dim {
              size: 1
            }
          }
          int_val: 1
        }
      }
    }
  }
  node {
    name: "Sum"
    op: "Sum"
    input: "mul"
    input: "Sum/reduction_indices"
    attr {
      key: "T"
      value {
        type: DT_FLOAT
      }
    }
    attr {
      key: "Tidx"
      value {
        type: DT_INT32
      }
    }
    attr {
      key: "_output_shapes"
      value {
        list {
          shape {
            dim {
              size: -1
            }
          }
        }
      }
    }
    attr {
      key: "keep_dims"
      value {
        b: false
      }
    }
  }
  node {
    name: "Neg"
    op: "Neg"
    input: "Sum"
    attr {
      key: "T"
      value {
        type: DT_FLOAT
      }
    }
    attr {
      key: "_output_shapes"
      value {
        list {
          shape {
            dim {
              size: -1
            }
          }
        }
      }
    }
  }
  node {
    name: "Const"
    op: "Const"
    attr {
      key: "_output_shapes"
      value {
        list {
          shape {
            dim {
              size: 1
            }
          }
        }
      }
    }
    attr {
      key: "dtype"
      value {
        type: DT_INT32
      }
    }
    attr {
      key: "value"
      value {
        tensor {
          dtype: DT_INT32
          tensor_shape {
            dim {
              size: 1
            }
          }
          int_val: 0
        }
      }
    }
  }
  node {
    name: "Mean"
    op: "Mean"
    input: "Neg"
    input: "Const"
    attr {
      key: "T"
      value {
        type: DT_FLOAT
      }
    }
    attr {
      key: "Tidx"
      value {
        type: DT_INT32
      }
    }
    attr {
      key: "_output_shapes"
      value {
        list {
          shape {
          }
        }
      }
    }
    attr {
      key: "keep_dims"
      value {
        b: false
      }
    }
  }
  node {
    name: "gradients/Shape"
    op: "Const"
    attr {
      key: "_output_shapes"
      value {
        list {
          shape {
            dim {
            }
          }
        }
      }
    }
    attr {
      key: "dtype"
      value {
        type: DT_INT32
      }
    }
    attr {
      key: "value"
      value {
        tensor {
          dtype: DT_INT32
          tensor_shape {
            dim {
            }
          }
        }
      }
    }
  }
  node {
    name: "gradients/Const"
    op: "Const"
    attr {
      key: "_output_shapes"
      value {
        list {
          shape {
          }
        }
      }
    }
    attr {
      key: "dtype"
      value {
        type: DT_FLOAT
      }
    }
    attr {
      key: "value"
      value {
        tensor {
          dtype: DT_FLOAT
          tensor_shape {
          }
          float_val: 1.0
        }
      }
    }
  }
  node {
    name: "gradients/Fill"
    op: "Fill"
    input: "gradients/Shape"
    input: "gradients/Const"
    attr {
      key: "T"
      value {
        type: DT_FLOAT
      }
    }
    attr {
      key: "_output_shapes"
      value {
        list {
          shape {
          }
        }
      }
    }
  }
  node {
    name: "gradients/Mean_grad/Reshape/shape"
    op: "Const"
    attr {
      key: "_output_shapes"
      value {
        list {
          shape {
            dim {
              size: 1
            }
          }
        }
      }
    }
    attr {
      key: "dtype"
      value {
        type: DT_INT32
      }
    }
    attr {
      key: "value"
      value {
        tensor {
          dtype: DT_INT32
          tensor_shape {
            dim {
              size: 1
            }
          }
          int_val: 1
        }
      }
    }
  }
  node {
    name: "gradients/Mean_grad/Reshape"
    op: "Reshape"
    input: "gradients/Fill"
    input: "gradients/Mean_grad/Reshape/shape"
    attr {
      key: "T"
      value {
        type: DT_FLOAT
      }
    }
    attr {
      key: "Tshape"
      value {
        type: DT_INT32
      }
    }
    attr {
      key: "_output_shapes"
      value {
        list {
          shape {
            dim {
              size: 1
            }
          }
        }
      }
    }
  }
  node {
    name: "gradients/Mean_grad/Shape"
    op: "Shape"
    input: "Neg"
    attr {
      key: "T"
      value {
        type: DT_FLOAT
      }
    }
    attr {
      key: "_output_shapes"
      value {
        list {
          shape {
            dim {
              size: 1
            }
          }
        }
      }
    }
    attr {
      key: "out_type"
      value {
        type: DT_INT32
      }
    }
  }
  node {
    name: "gradients/Mean_grad/Tile"
    op: "Tile"
    input: "gradients/Mean_grad/Reshape"
    input: "gradients/Mean_grad/Shape"
    attr {
      key: "T"
      value {
        type: DT_FLOAT
      }
    }
    attr {
      key: "Tmultiples"
      value {
        type: DT_INT32
      }
    }
    attr {
      key: "_output_shapes"
      value {
        list {
          shape {
            dim {
              size: -1
            }
          }
        }
      }
    }
  }
  node {
    name: "gradients/Mean_grad/Shape_1"
    op: "Shape"
    input: "Neg"
    attr {
      key: "T"
      value {
        type: DT_FLOAT
      }
    }
    attr {
      key: "_output_shapes"
      value {
        list {
          shape {
            dim {
              size: 1
            }
          }
        }
      }
    }
    attr {
      key: "out_type"
      value {
        type: DT_INT32
      }
    }
  }
  node {
    name: "gradients/Mean_grad/Shape_2"
    op: "Const"
    attr {
      key: "_output_shapes"
      value {
        list {
          shape {
            dim {
            }
          }
        }
      }
    }
    attr {
      key: "dtype"
      value {
        type: DT_INT32
      }
    }
    attr {
      key: "value"
      value {
        tensor {
          dtype: DT_INT32
          tensor_shape {
            dim {
            }
          }
        }
      }
    }
  }
  node {
    name: "gradients/Mean_grad/Const"
    op: "Const"
    attr {
      key: "_class"
      value {
        list {
          s: "loc:@gradients/Mean_grad/Shape_1"
        }
      }
    }
    attr {
      key: "_output_shapes"
      value {
        list {
          shape {
            dim {
              size: 1
            }
          }
        }
      }
    }
    attr {
      key: "dtype"
      value {
        type: DT_INT32
      }
    }
    attr {
      key: "value"
      value {
        tensor {
          dtype: DT_INT32
          tensor_shape {
            dim {
              size: 1
            }
          }
          int_val: 0
        }
      }
    }
  }
  node {
    name: "gradients/Mean_grad/Prod"
    op: "Prod"
    input: "gradients/Mean_grad/Shape_1"
    input: "gradients/Mean_grad/Const"
    attr {
      key: "T"
      value {
        type: DT_INT32
      }
    }
    attr {
      key: "Tidx"
      value {
        type: DT_INT32
      }
    }
    attr {
      key: "_class"
      value {
        list {
          s: "loc:@gradients/Mean_grad/Shape_1"
        }
      }
    }
    attr {
      key: "_output_shapes"
      value {
        list {
          shape {
          }
        }
      }
    }
    attr {
      key: "keep_dims"
      value {
        b: false
      }
    }
  }
  node {
    name: "gradients/Mean_grad/Const_1"
    op: "Const"
    attr {
      key: "_class"
      value {
        list {
          s: "loc:@gradients/Mean_grad/Shape_1"
        }
      }
    }
    attr {
      key: "_output_shapes"
      value {
        list {
          shape {
            dim {
              size: 1
            }
          }
        }
      }
    }
    attr {
      key: "dtype"
      value {
        type: DT_INT32
      }
    }
    attr {
      key: "value"
      value {
        tensor {
          dtype: DT_INT32
          tensor_shape {
            dim {
              size: 1
            }
          }
          int_val: 0
        }
      }
    }
  }
  node {
    name: "gradients/Mean_grad/Prod_1"
    op: "Prod"
    input: "gradients/Mean_grad/Shape_2"
    input: "gradients/Mean_grad/Const_1"
    attr {
      key: "T"
      value {
        type: DT_INT32
      }
    }
    attr {
      key: "Tidx"
      value {
        type: DT_INT32
      }
    }
    attr {
      key: "_class"
      value {
        list {
          s: "loc:@gradients/Mean_grad/Shape_1"
        }
      }
    }
    attr {
      key: "_output_shapes"
      value {
        list {
          shape {
          }
        }
      }
    }
    attr {
      key: "keep_dims"
      value {
        b: false
      }
    }
  }
  node {
    name: "gradients/Mean_grad/Maximum/y"
    op: "Const"
    attr {
      key: "_class"
      value {
        list {
          s: "loc:@gradients/Mean_grad/Shape_1"
        }
      }
    }
    attr {
      key: "_output_shapes"
      value {
        list {
          shape {
          }
        }
      }
    }
    attr {
      key: "dtype"
      value {
        type: DT_INT32
      }
    }
    attr {
      key: "value"
      value {
        tensor {
          dtype: DT_INT32
          tensor_shape {
          }
          int_val: 1
        }
      }
    }
  }
  node {
    name: "gradients/Mean_grad/Maximum"
    op: "Maximum"
    input: "gradients/Mean_grad/Prod_1"
    input: "gradients/Mean_grad/Maximum/y"
    attr {
      key: "T"
      value {
        type: DT_INT32
      }
    }
    attr {
      key: "_class"
      value {
        list {
          s: "loc:@gradients/Mean_grad/Shape_1"
        }
      }
    }
    attr {
      key: "_output_shapes"
      value {
        list {
          shape {
          }
        }
      }
    }
  }
  node {
    name: "gradients/Mean_grad/floordiv"
    op: "FloorDiv"
    input: "gradients/Mean_grad/Prod"
    input: "gradients/Mean_grad/Maximum"
    attr {
      key: "T"
      value {
        type: DT_INT32
      }
    }
    attr {
      key: "_class"
      value {
        list {
          s: "loc:@gradients/Mean_grad/Shape_1"
        }
      }
    }
    attr {
      key: "_output_shapes"
      value {
        list {
          shape {
          }
        }
      }
    }
  }
  node {
    name: "gradients/Mean_grad/Cast"
    op: "Cast"
    input: "gradients/Mean_grad/floordiv"
    attr {
      key: "DstT"
      value {
        type: DT_FLOAT
      }
    }
    attr {
      key: "SrcT"
      value {
        type: DT_INT32
      }
    }
    attr {
      key: "_output_shapes"
      value {
        list {
          shape {
          }
        }
      }
    }
  }
  node {
    name: "gradients/Mean_grad/truediv"
    op: "RealDiv"
    input: "gradients/Mean_grad/Tile"
    input: "gradients/Mean_grad/Cast"
    attr {
      key: "T"
      value {
        type: DT_FLOAT
      }
    }
    attr {
      key: "_output_shapes"
      value {
        list {
          shape {
            dim {
              size: -1
            }
          }
        }
      }
    }
  }
  node {
    name: "gradients/Neg_grad/Neg"
    op: "Neg"
    input: "gradients/Mean_grad/truediv"
    attr {
      key: "T"
      value {
        type: DT_FLOAT
      }
    }
    attr {
      key: "_output_shapes"
      value {
        list {
          shape {
            dim {
              size: -1
            }
          }
        }
      }
    }
  }
  node {
    name: "gradients/Sum_grad/Shape"
    op: "Shape"
    input: "mul"
    attr {
      key: "T"
      value {
        type: DT_FLOAT
      }
    }
    attr {
      key: "_output_shapes"
      value {
        list {
          shape {
            dim {
              size: 2
            }
          }
        }
      }
    }
    attr {
      key: "out_type"
      value {
        type: DT_INT32
      }
    }
  }
  node {
    name: "gradients/Sum_grad/Size"
    op: "Const"
    attr {
      key: "_class"
      value {
        list {
          s: "loc:@gradients/Sum_grad/Shape"
        }
      }
    }
    attr {
      key: "_output_shapes"
      value {
        list {
          shape {
          }
        }
      }
    }
    attr {
      key: "dtype"
      value {
        type: DT_INT32
      }
    }
    attr {
      key: "value"
      value {
        tensor {
          dtype: DT_INT32
          tensor_shape {
          }
          int_val: 2
        }
      }
    }
  }
  node {
    name: "gradients/Sum_grad/add"
    op: "Add"
    input: "Sum/reduction_indices"
    input: "gradients/Sum_grad/Size"
    attr {
      key: "T"
      value {
        type: DT_INT32
      }
    }
    attr {
      key: "_class"
      value {
        list {
          s: "loc:@gradients/Sum_grad/Shape"
        }
      }
    }
    attr {
      key: "_output_shapes"
      value {
        list {
          shape {
            dim {
              size: 1
            }
          }
        }
      }
    }
  }
  node {
    name: "gradients/Sum_grad/mod"
    op: "FloorMod"
    input: "gradients/Sum_grad/add"
    input: "gradients/Sum_grad/Size"
    attr {
      key: "T"
      value {
        type: DT_INT32
      }
    }
    attr {
      key: "_class"
      value {
        list {
          s: "loc:@gradients/Sum_grad/Shape"
        }
      }
    }
    attr {
      key: "_output_shapes"
      value {
        list {
          shape {
            dim {
              size: 1
            }
          }
        }
      }
    }
  }
  node {
    name: "gradients/Sum_grad/Shape_1"
    op: "Const"
    attr {
      key: "_class"
      value {
        list {
          s: "loc:@gradients/Sum_grad/Shape"
        }
      }
    }
    attr {
      key: "_output_shapes"
      value {
        list {
          shape {
            dim {
              size: 1
            }
          }
        }
      }
    }
    attr {
      key: "dtype"
      value {
        type: DT_INT32
      }
    }
    attr {
      key: "value"
      value {
        tensor {
          dtype: DT_INT32
          tensor_shape {
            dim {
              size: 1
            }
          }
          int_val: 1
        }
      }
    }
  }
  node {
    name: "gradients/Sum_grad/range/start"
    op: "Const"
    attr {
      key: "_class"
      value {
        list {
          s: "loc:@gradients/Sum_grad/Shape"
        }
      }
    }
    attr {
      key: "_output_shapes"
      value {
        list {
          shape {
          }
        }
      }
    }
    attr {
      key: "dtype"
      value {
        type: DT_INT32
      }
    }
    attr {
      key: "value"
      value {
        tensor {
          dtype: DT_INT32
          tensor_shape {
          }
          int_val: 0
        }
      }
    }
  }
  node {
    name: "gradients/Sum_grad/range/delta"
    op: "Const"
    attr {
      key: "_class"
      value {
        list {
          s: "loc:@gradients/Sum_grad/Shape"
        }
      }
    }
    attr {
      key: "_output_shapes"
      value {
        list {
          shape {
          }
        }
      }
    }
    attr {
      key: "dtype"
      value {
        type: DT_INT32
      }
    }
    attr {
      key: "value"
      value {
        tensor {
          dtype: DT_INT32
          tensor_shape {
          }
          int_val: 1
        }
      }
    }
  }
  node {
    name: "gradients/Sum_grad/range"
    op: "Range"
    input: "gradients/Sum_grad/range/start"
    input: "gradients/Sum_grad/Size"
    input: "gradients/Sum_grad/range/delta"
    attr {
      key: "Tidx"
      value {
        type: DT_INT32
      }
    }
    attr {
      key: "_class"
      value {
        list {
          s: "loc:@gradients/Sum_grad/Shape"
        }
      }
    }
    attr {
      key: "_output_shapes"
      value {
        list {
          shape {
            dim {
              size: 2
            }
          }
        }
      }
    }
  }
  node {
    name: "gradients/Sum_grad/Fill/value"
    op: "Const"
    attr {
      key: "_class"
      value {
        list {
          s: "loc:@gradients/Sum_grad/Shape"
        }
      }
    }
    attr {
      key: "_output_shapes"
      value {
        list {
          shape {
          }
        }
      }
    }
    attr {
      key: "dtype"
      value {
        type: DT_INT32
      }
    }
    attr {
      key: "value"
      value {
        tensor {
          dtype: DT_INT32
          tensor_shape {
          }
          int_val: 1
        }
      }
    }
  }
  node {
    name: "gradients/Sum_grad/Fill"
    op: "Fill"
    input: "gradients/Sum_grad/Shape_1"
    input: "gradients/Sum_grad/Fill/value"
    attr {
      key: "T"
      value {
        type: DT_INT32
      }
    }
    attr {
      key: "_class"
      value {
        list {
          s: "loc:@gradients/Sum_grad/Shape"
        }
      }
    }
    attr {
      key: "_output_shapes"
      value {
        list {
          shape {
            dim {
              size: 1
            }
          }
        }
      }
    }
  }
  node {
    name: "gradients/Sum_grad/DynamicStitch"
    op: "DynamicStitch"
    input: "gradients/Sum_grad/range"
    input: "gradients/Sum_grad/mod"
    input: "gradients/Sum_grad/Shape"
    input: "gradients/Sum_grad/Fill"
    attr {
      key: "N"
      value {
        i: 2
      }
    }
    attr {
      key: "T"
      value {
        type: DT_INT32
      }
    }
    attr {
      key: "_class"
      value {
        list {
          s: "loc:@gradients/Sum_grad/Shape"
        }
      }
    }
    attr {
      key: "_output_shapes"
      value {
        list {
          shape {
            dim {
              size: -1
            }
          }
        }
      }
    }
  }
  node {
    name: "gradients/Sum_grad/Maximum/y"
    op: "Const"
    attr {
      key: "_class"
      value {
        list {
          s: "loc:@gradients/Sum_grad/Shape"
        }
      }
    }
    attr {
      key: "_output_shapes"
      value {
        list {
          shape {
          }
        }
      }
    }
    attr {
      key: "dtype"
      value {
        type: DT_INT32
      }
    }
    attr {
      key: "value"
      value {
        tensor {
          dtype: DT_INT32
          tensor_shape {
          }
          int_val: 1
        }
      }
    }
  }
  node {
    name: "gradients/Sum_grad/Maximum"
    op: "Maximum"
    input: "gradients/Sum_grad/DynamicStitch"
    input: "gradients/Sum_grad/Maximum/y"
    attr {
      key: "T"
      value {
        type: DT_INT32
      }
    }
    attr {
      key: "_class"
      value {
        list {
          s: "loc:@gradients/Sum_grad/Shape"
        }
      }
    }
    attr {
      key: "_output_shapes"
      value {
        list {
          shape {
            dim {
              size: -1
            }
          }
        }
      }
    }
  }
  node {
    name: "gradients/Sum_grad/floordiv"
    op: "FloorDiv"
    input: "gradients/Sum_grad/Shape"
    input: "gradients/Sum_grad/Maximum"
    attr {
      key: "T"
      value {
        type: DT_INT32
      }
    }
    attr {
      key: "_class"
      value {
        list {
          s: "loc:@gradients/Sum_grad/Shape"
        }
      }
    }
    attr {
      key: "_output_shapes"
      value {
        list {
          shape {
            dim {
              size: 2
            }
          }
        }
      }
    }
  }
  node {
    name: "gradients/Sum_grad/Reshape"
    op: "Reshape"
    input: "gradients/Neg_grad/Neg"
    input: "gradients/Sum_grad/DynamicStitch"
    attr {
      key: "T"
      value {
        type: DT_FLOAT
      }
    }
    attr {
      key: "Tshape"
      value {
        type: DT_INT32
      }
    }
    attr {
      key: "_output_shapes"
      value {
        list {
          shape {
            unknown_rank: true
          }
        }
      }
    }
  }
  node {
    name: "gradients/Sum_grad/Tile"
    op: "Tile"
    input: "gradients/Sum_grad/Reshape"
    input: "gradients/Sum_grad/floordiv"
    attr {
      key: "T"
      value {
        type: DT_FLOAT
      }
    }
    attr {
      key: "Tmultiples"
      value {
        type: DT_INT32
      }
    }
    attr {
      key: "_output_shapes"
      value {
        list {
          shape {
            dim {
              size: -1
            }
            dim {
              size: 10
            }
          }
        }
      }
    }
  }
  node {
    name: "gradients/mul_grad/Shape"
    op: "Shape"
    input: "Placeholder_1"
    attr {
      key: "T"
      value {
        type: DT_FLOAT
      }
    }
    attr {
      key: "_output_shapes"
      value {
        list {
          shape {
            dim {
              size: 2
            }
          }
        }
      }
    }
    attr {
      key: "out_type"
      value {
        type: DT_INT32
      }
    }
  }
  node {
    name: "gradients/mul_grad/Shape_1"
    op: "Shape"
    input: "Log"
    attr {
      key: "T"
      value {
        type: DT_FLOAT
      }
    }
    attr {
      key: "_output_shapes"
      value {
        list {
          shape {
            dim {
              size: 2
            }
          }
        }
      }
    }
    attr {
      key: "out_type"
      value {
        type: DT_INT32
      }
    }
  }
  node {
    name: "gradients/mul_grad/BroadcastGradientArgs"
    op: "BroadcastGradientArgs"
    input: "gradients/mul_grad/Shape"
    input: "gradients/mul_grad/Shape_1"
    attr {
      key: "T"
      value {
        type: DT_INT32
      }
    }
    attr {
      key: "_output_shapes"
      value {
        list {
          shape {
            dim {
              size: -1
            }
          }
          shape {
            dim {
              size: -1
            }
          }
        }
      }
    }
  }
  node {
    name: "gradients/mul_grad/mul"
    op: "Mul"
    input: "gradients/Sum_grad/Tile"
    input: "Log"
    attr {
      key: "T"
      value {
        type: DT_FLOAT
      }
    }
    attr {
      key: "_output_shapes"
      value {
        list {
          shape {
            dim {
              size: -1
            }
            dim {
              size: 10
            }
          }
        }
      }
    }
  }
  node {
    name: "gradients/mul_grad/Sum"
    op: "Sum"
    input: "gradients/mul_grad/mul"
    input: "gradients/mul_grad/BroadcastGradientArgs"
    attr {
      key: "T"
      value {
        type: DT_FLOAT
      }
    }
    attr {
      key: "Tidx"
      value {
        type: DT_INT32
      }
    }
    attr {
      key: "_output_shapes"
      value {
        list {
          shape {
            unknown_rank: true
          }
        }
      }
    }
    attr {
      key: "keep_dims"
      value {
        b: false
      }
    }
  }
  node {
    name: "gradients/mul_grad/Reshape"
    op: "Reshape"
    input: "gradients/mul_grad/Sum"
    input: "gradients/mul_grad/Shape"
    attr {
      key: "T"
      value {
        type: DT_FLOAT
      }
    }
    attr {
      key: "Tshape"
      value {
        type: DT_INT32
      }
    }
    attr {
      key: "_output_shapes"
      value {
        list {
          shape {
            dim {
              size: -1
            }
            dim {
              size: 10
            }
          }
        }
      }
    }
  }
  node {
    name: "gradients/mul_grad/mul_1"
    op: "Mul"
    input: "Placeholder_1"
    input: "gradients/Sum_grad/Tile"
    attr {
      key: "T"
      value {
        type: DT_FLOAT
      }
    }
    attr {
      key: "_output_shapes"
      value {
        list {
          shape {
            dim {
              size: -1
            }
            dim {
              size: 10
            }
          }
        }
      }
    }
  }
  node {
    name: "gradients/mul_grad/Sum_1"
    op: "Sum"
    input: "gradients/mul_grad/mul_1"
    input: "gradients/mul_grad/BroadcastGradientArgs:1"
    attr {
      key: "T"
      value {
        type: DT_FLOAT
      }
    }
    attr {
      key: "Tidx"
      value {
        type: DT_INT32
      }
    }
    attr {
      key: "_output_shapes"
      value {
        list {
          shape {
            unknown_rank: true
          }
        }
      }
    }
    attr {
      key: "keep_dims"
      value {
        b: false
      }
    }
  }
  node {
    name: "gradients/mul_grad/Reshape_1"
    op: "Reshape"
    input: "gradients/mul_grad/Sum_1"
    input: "gradients/mul_grad/Shape_1"
    attr {
      key: "T"
      value {
        type: DT_FLOAT
      }
    }
    attr {
      key: "Tshape"
      value {
        type: DT_INT32
      }
    }
    attr {
      key: "_output_shapes"
      value {
        list {
          shape {
            dim {
              size: -1
            }
            dim {
              size: 10
            }
          }
        }
      }
    }
  }
  node {
    name: "gradients/mul_grad/tuple/group_deps"
    op: "NoOp"
    input: "^gradients/mul_grad/Reshape"
    input: "^gradients/mul_grad/Reshape_1"
  }
  node {
    name: "gradients/mul_grad/tuple/control_dependency"
    op: "Identity"
    input: "gradients/mul_grad/Reshape"
    input: "^gradients/mul_grad/tuple/group_deps"
    attr {
      key: "T"
      value {
        type: DT_FLOAT
      }
    }
    attr {
      key: "_class"
      value {
        list {
          s: "loc:@gradients/mul_grad/Reshape"
        }
      }
    }
    attr {
      key: "_output_shapes"
      value {
        list {
          shape {
            dim {
              size: -1
            }
            dim {
              size: 10
            }
          }
        }
      }
    }
  }
  node {
    name: "gradients/mul_grad/tuple/control_dependency_1"
    op: "Identity"
    input: "gradients/mul_grad/Reshape_1"
    input: "^gradients/mul_grad/tuple/group_deps"
    attr {
      key: "T"
      value {
        type: DT_FLOAT
      }
    }
    attr {
      key: "_class"
      value {
        list {
          s: "loc:@gradients/mul_grad/Reshape_1"
        }
      }
    }
    attr {
      key: "_output_shapes"
      value {
        list {
          shape {
            dim {
              size: -1
            }
            dim {
              size: 10
            }
          }
        }
      }
    }
  }
  node {
    name: "gradients/Log_grad/Reciprocal"
    op: "Reciprocal"
    input: "Softmax"
    input: "^gradients/mul_grad/tuple/control_dependency_1"
    attr {
      key: "T"
      value {
        type: DT_FLOAT
      }
    }
    attr {
      key: "_output_shapes"
      value {
        list {
          shape {
            dim {
              size: -1
            }
            dim {
              size: 10
            }
          }
        }
      }
    }
  }
  node {
    name: "gradients/Log_grad/mul"
    op: "Mul"
    input: "gradients/mul_grad/tuple/control_dependency_1"
    input: "gradients/Log_grad/Reciprocal"
    attr {
      key: "T"
      value {
        type: DT_FLOAT
      }
    }
    attr {
      key: "_output_shapes"
      value {
        list {
          shape {
            dim {
              size: -1
            }
            dim {
              size: 10
            }
          }
        }
      }
    }
  }
  node {
    name: "gradients/Softmax_grad/mul"
    op: "Mul"
    input: "gradients/Log_grad/mul"
    input: "Softmax"
    attr {
      key: "T"
      value {
        type: DT_FLOAT
      }
    }
    attr {
      key: "_output_shapes"
      value {
        list {
          shape {
            dim {
              size: -1
            }
            dim {
              size: 10
            }
          }
        }
      }
    }
  }
  node {
    name: "gradients/Softmax_grad/Sum/reduction_indices"
    op: "Const"
    attr {
      key: "_output_shapes"
      value {
        list {
          shape {
            dim {
              size: 1
            }
          }
        }
      }
    }
    attr {
      key: "dtype"
      value {
        type: DT_INT32
      }
    }
    attr {
      key: "value"
      value {
        tensor {
          dtype: DT_INT32
          tensor_shape {
            dim {
              size: 1
            }
          }
          int_val: 1
        }
      }
    }
  }
  node {
    name: "gradients/Softmax_grad/Sum"
    op: "Sum"
    input: "gradients/Softmax_grad/mul"
    input: "gradients/Softmax_grad/Sum/reduction_indices"
    attr {
      key: "T"
      value {
        type: DT_FLOAT
      }
    }
    attr {
      key: "Tidx"
      value {
        type: DT_INT32
      }
    }
    attr {
      key: "_output_shapes"
      value {
        list {
          shape {
            dim {
              size: -1
            }
          }
        }
      }
    }
    attr {
      key: "keep_dims"
      value {
        b: false
      }
    }
  }
  node {
    name: "gradients/Softmax_grad/Reshape/shape"
    op: "Const"
    attr {
      key: "_output_shapes"
      value {
        list {
          shape {
            dim {
              size: 2
            }
          }
        }
      }
    }
    attr {
      key: "dtype"
      value {
        type: DT_INT32
      }
    }
    attr {
      key: "value"
      value {
        tensor {
          dtype: DT_INT32
          tensor_shape {
            dim {
              size: 2
            }
          }
          tensor_content: "\377\377\377\377\001\000\000\000"
        }
      }
    }
  }
  node {
    name: "gradients/Softmax_grad/Reshape"
    op: "Reshape"
    input: "gradients/Softmax_grad/Sum"
    input: "gradients/Softmax_grad/Reshape/shape"
    attr {
      key: "T"
      value {
        type: DT_FLOAT
      }
    }
    attr {
      key: "Tshape"
      value {
        type: DT_INT32
      }
    }
    attr {
      key: "_output_shapes"
      value {
        list {
          shape {
            dim {
              size: -1
            }
            dim {
              size: 1
            }
          }
        }
      }
    }
  }
  node {
    name: "gradients/Softmax_grad/sub"
    op: "Sub"
    input: "gradients/Log_grad/mul"
    input: "gradients/Softmax_grad/Reshape"
    attr {
      key: "T"
      value {
        type: DT_FLOAT
      }
    }
    attr {
      key: "_output_shapes"
      value {
        list {
          shape {
            dim {
              size: -1
            }
            dim {
              size: 10
            }
          }
        }
      }
    }
  }
  node {
    name: "gradients/Softmax_grad/mul_1"
    op: "Mul"
    input: "gradients/Softmax_grad/sub"
    input: "Softmax"
    attr {
      key: "T"
      value {
        type: DT_FLOAT
      }
    }
    attr {
      key: "_output_shapes"
      value {
        list {
          shape {
            dim {
              size: -1
            }
            dim {
              size: 10
            }
          }
        }
      }
    }
  }
  node {
    name: "gradients/add_grad/Shape"
    op: "Shape"
    input: "MatMul"
    attr {
      key: "T"
      value {
        type: DT_FLOAT
      }
    }
    attr {
      key: "_output_shapes"
      value {
        list {
          shape {
            dim {
              size: 2
            }
          }
        }
      }
    }
    attr {
      key: "out_type"
      value {
        type: DT_INT32
      }
    }
  }
  node {
    name: "gradients/add_grad/Shape_1"
    op: "Const"
    attr {
      key: "_output_shapes"
      value {
        list {
          shape {
            dim {
              size: 1
            }
          }
        }
      }
    }
    attr {
      key: "dtype"
      value {
        type: DT_INT32
      }
    }
    attr {
      key: "value"
      value {
        tensor {
          dtype: DT_INT32
          tensor_shape {
            dim {
              size: 1
            }
          }
          int_val: 10
        }
      }
    }
  }
  node {
    name: "gradients/add_grad/BroadcastGradientArgs"
    op: "BroadcastGradientArgs"
    input: "gradients/add_grad/Shape"
    input: "gradients/add_grad/Shape_1"
    attr {
      key: "T"
      value {
        type: DT_INT32
      }
    }
    attr {
      key: "_output_shapes"
      value {
        list {
          shape {
            dim {
              size: -1
            }
          }
          shape {
            dim {
              size: -1
            }
          }
        }
      }
    }
  }
  node {
    name: "gradients/add_grad/Sum"
    op: "Sum"
    input: "gradients/Softmax_grad/mul_1"
    input: "gradients/add_grad/BroadcastGradientArgs"
    attr {
      key: "T"
      value {
        type: DT_FLOAT
      }
    }
    attr {
      key: "Tidx"
      value {
        type: DT_INT32
      }
    }
    attr {
      key: "_output_shapes"
      value {
        list {
          shape {
            unknown_rank: true
          }
        }
      }
    }
    attr {
      key: "keep_dims"
      value {
        b: false
      }
    }
  }
  node {
    name: "gradients/add_grad/Reshape"
    op: "Reshape"
    input: "gradients/add_grad/Sum"
    input: "gradients/add_grad/Shape"
    attr {
      key: "T"
      value {
        type: DT_FLOAT
      }
    }
    attr {
      key: "Tshape"
      value {
        type: DT_INT32
      }
    }
    attr {
      key: "_output_shapes"
      value {
        list {
          shape {
            dim {
              size: -1
            }
            dim {
              size: 10
            }
          }
        }
      }
    }
  }
  node {
    name: "gradients/add_grad/Sum_1"
    op: "Sum"
    input: "gradients/Softmax_grad/mul_1"
    input: "gradients/add_grad/BroadcastGradientArgs:1"
    attr {
      key: "T"
      value {
        type: DT_FLOAT
      }
    }
    attr {
      key: "Tidx"
      value {
        type: DT_INT32
      }
    }
    attr {
      key: "_output_shapes"
      value {
        list {
          shape {
            unknown_rank: true
          }
        }
      }
    }
    attr {
      key: "keep_dims"
      value {
        b: false
      }
    }
  }
  node {
    name: "gradients/add_grad/Reshape_1"
    op: "Reshape"
    input: "gradients/add_grad/Sum_1"
    input: "gradients/add_grad/Shape_1"
    attr {
      key: "T"
      value {
        type: DT_FLOAT
      }
    }
    attr {
      key: "Tshape"
      value {
        type: DT_INT32
      }
    }
    attr {
      key: "_output_shapes"
      value {
        list {
          shape {
            dim {
              size: 10
            }
          }
        }
      }
    }
  }
  node {
    name: "gradients/add_grad/tuple/group_deps"
    op: "NoOp"
    input: "^gradients/add_grad/Reshape"
    input: "^gradients/add_grad/Reshape_1"
  }
  node {
    name: "gradients/add_grad/tuple/control_dependency"
    op: "Identity"
    input: "gradients/add_grad/Reshape"
    input: "^gradients/add_grad/tuple/group_deps"
    attr {
      key: "T"
      value {
        type: DT_FLOAT
      }
    }
    attr {
      key: "_class"
      value {
        list {
          s: "loc:@gradients/add_grad/Reshape"
        }
      }
    }
    attr {
      key: "_output_shapes"
      value {
        list {
          shape {
            dim {
              size: -1
            }
            dim {
              size: 10
            }
          }
        }
      }
    }
  }
  node {
    name: "gradients/add_grad/tuple/control_dependency_1"
    op: "Identity"
    input: "gradients/add_grad/Reshape_1"
    input: "^gradients/add_grad/tuple/group_deps"
    attr {
      key: "T"
      value {
        type: DT_FLOAT
      }
    }
    attr {
      key: "_class"
      value {
        list {
          s: "loc:@gradients/add_grad/Reshape_1"
        }
      }
    }
    attr {
      key: "_output_shapes"
      value {
        list {
          shape {
            dim {
              size: 10
            }
          }
        }
      }
    }
  }
  node {
    name: "gradients/MatMul_grad/MatMul"
    op: "MatMul"
    input: "gradients/add_grad/tuple/control_dependency"
    input: "Variable/read"
    attr {
      key: "T"
      value {
        type: DT_FLOAT
      }
    }
    attr {
      key: "_output_shapes"
      value {
        list {
          shape {
            dim {
              size: -1
            }
            dim {
              size: 784
            }
          }
        }
      }
    }
    attr {
      key: "transpose_a"
      value {
        b: false
      }
    }
    attr {
      key: "transpose_b"
      value {
        b: true
      }
    }
  }
  node {
    name: "gradients/MatMul_grad/MatMul_1"
    op: "MatMul"
    input: "Placeholder"
    input: "gradients/add_grad/tuple/control_dependency"
    attr {
      key: "T"
      value {
        type: DT_FLOAT
      }
    }
    attr {
      key: "_output_shapes"
      value {
        list {
          shape {
            dim {
              size: 784
            }
            dim {
              size: 10
            }
          }
        }
      }
    }
    attr {
      key: "transpose_a"
      value {
        b: true
      }
    }
    attr {
      key: "transpose_b"
      value {
        b: false
      }
    }
  }
  node {
    name: "gradients/MatMul_grad/tuple/group_deps"
    op: "NoOp"
    input: "^gradients/MatMul_grad/MatMul"
    input: "^gradients/MatMul_grad/MatMul_1"
  }
  node {
    name: "gradients/MatMul_grad/tuple/control_dependency"
    op: "Identity"
    input: "gradients/MatMul_grad/MatMul"
    input: "^gradients/MatMul_grad/tuple/group_deps"
    attr {
      key: "T"
      value {
        type: DT_FLOAT
      }
    }
    attr {
      key: "_class"
      value {
        list {
          s: "loc:@gradients/MatMul_grad/MatMul"
        }
      }
    }
    attr {
      key: "_output_shapes"
      value {
        list {
          shape {
            dim {
              size: -1
            }
            dim {
              size: 784
            }
          }
        }
      }
    }
  }
  node {
    name: "gradients/MatMul_grad/tuple/control_dependency_1"
    op: "Identity"
    input: "gradients/MatMul_grad/MatMul_1"
    input: "^gradients/MatMul_grad/tuple/group_deps"
    attr {
      key: "T"
      value {
        type: DT_FLOAT
      }
    }
    attr {
      key: "_class"
      value {
        list {
          s: "loc:@gradients/MatMul_grad/MatMul_1"
        }
      }
    }
    attr {
      key: "_output_shapes"
      value {
        list {
          shape {
            dim {
              size: 784
            }
            dim {
              size: 10
            }
          }
        }
      }
    }
  }
  node {
    name: "GradientDescent/learning_rate"
    op: "Const"
    attr {
      key: "_output_shapes"
      value {
        list {
          shape {
          }
        }
      }
    }
    attr {
      key: "dtype"
      value {
        type: DT_FLOAT
      }
    }
    attr {
      key: "value"
      value {
        tensor {
          dtype: DT_FLOAT
          tensor_shape {
          }
          float_val: 0.5
        }
      }
    }
  }
  node {
    name: "GradientDescent/update_Variable/ApplyGradientDescent"
    op: "ApplyGradientDescent"
    input: "Variable"
    input: "GradientDescent/learning_rate"
    input: "gradients/MatMul_grad/tuple/control_dependency_1"
    attr {
      key: "T"
      value {
        type: DT_FLOAT
      }
    }
    attr {
      key: "_class"
      value {
        list {
          s: "loc:@Variable"
        }
      }
    }
    attr {
      key: "_output_shapes"
      value {
        list {
          shape {
            dim {
              size: 784
            }
            dim {
              size: 10
            }
          }
        }
      }
    }
    attr {
      key: "use_locking"
      value {
        b: false
      }
    }
  }
  node {
    name: "GradientDescent/update_Variable_1/ApplyGradientDescent"
    op: "ApplyGradientDescent"
    input: "Variable_1"
    input: "GradientDescent/learning_rate"
    input: "gradients/add_grad/tuple/control_dependency_1"
    attr {
      key: "T"
      value {
        type: DT_FLOAT
      }
    }
    attr {
      key: "_class"
      value {
        list {
          s: "loc:@Variable_1"
        }
      }
    }
    attr {
      key: "_output_shapes"
      value {
        list {
          shape {
            dim {
              size: 10
            }
          }
        }
      }
    }
    attr {
      key: "use_locking"
      value {
        b: false
      }
    }
  }
  node {
    name: "GradientDescent"
    op: "NoOp"
    input: "^GradientDescent/update_Variable/ApplyGradientDescent"
    input: "^GradientDescent/update_Variable_1/ApplyGradientDescent"
  }
  node {
    name: "init"
    op: "NoOp"
    input: "^Variable/Assign"
    input: "^Variable_1/Assign"
  }
  node {
    name: "ArgMax/dimension"
    op: "Const"
    attr {
      key: "_output_shapes"
      value {
        list {
          shape {
          }
        }
      }
    }
    attr {
      key: "dtype"
      value {
        type: DT_INT32
      }
    }
    attr {
      key: "value"
      value {
        tensor {
          dtype: DT_INT32
          tensor_shape {
          }
          int_val: 1
        }
      }
    }
  }
  node {
    name: "ArgMax"
    op: "ArgMax"
    input: "Softmax"
    input: "ArgMax/dimension"
    attr {
      key: "T"
      value {
        type: DT_FLOAT
      }
    }
    attr {
      key: "Tidx"
      value {
        type: DT_INT32
      }
    }
    attr {
      key: "_output_shapes"
      value {
        list {
          shape {
            dim {
              size: -1
            }
          }
        }
      }
    }
    attr {
      key: "output_type"
      value {
        type: DT_INT64
      }
    }
  }
  node {
    name: "ArgMax_1/dimension"
    op: "Const"
    attr {
      key: "_output_shapes"
      value {
        list {
          shape {
          }
        }
      }
    }
    attr {
      key: "dtype"
      value {
        type: DT_INT32
      }
    }
    attr {
      key: "value"
      value {
        tensor {
          dtype: DT_INT32
          tensor_shape {
          }
          int_val: 1
        }
      }
    }
  }
  node {
    name: "ArgMax_1"
    op: "ArgMax"
    input: "Placeholder_1"
    input: "ArgMax_1/dimension"
    attr {
      key: "T"
      value {
        type: DT_FLOAT
      }
    }
    attr {
      key: "Tidx"
      value {
        type: DT_INT32
      }
    }
    attr {
      key: "_output_shapes"
      value {
        list {
          shape {
            dim {
              size: -1
            }
          }
        }
      }
    }
    attr {
      key: "output_type"
      value {
        type: DT_INT64
      }
    }
  }
  node {
    name: "Equal"
    op: "Equal"
    input: "ArgMax"
    input: "ArgMax_1"
    attr {
      key: "T"
      value {
        type: DT_INT64
      }
    }
    attr {
      key: "_output_shapes"
      value {
        list {
          shape {
            dim {
              size: -1
            }
          }
        }
      }
    }
  }
  node {
    name: "Cast"
    op: "Cast"
    input: "Equal"
    attr {
      key: "DstT"
      value {
        type: DT_FLOAT
      }
    }
    attr {
      key: "SrcT"
      value {
        type: DT_BOOL
      }
    }
    attr {
      key: "_output_shapes"
      value {
        list {
          shape {
            dim {
              size: -1
            }
          }
        }
      }
    }
  }
  node {
    name: "Const_1"
    op: "Const"
    attr {
      key: "_output_shapes"
      value {
        list {
          shape {
            dim {
              size: 1
            }
          }
        }
      }
    }
    attr {
      key: "dtype"
      value {
        type: DT_INT32
      }
    }
    attr {
      key: "value"
      value {
        tensor {
          dtype: DT_INT32
          tensor_shape {
            dim {
              size: 1
            }
          }
          int_val: 0
        }
      }
    }
  }
  node {
    name: "Mean_1"
    op: "Mean"
    input: "Cast"
    input: "Const_1"
    attr {
      key: "T"
      value {
        type: DT_FLOAT
      }
    }
    attr {
      key: "Tidx"
      value {
        type: DT_INT32
      }
    }
    attr {
      key: "_output_shapes"
      value {
        list {
          shape {
          }
        }
      }
    }
    attr {
      key: "keep_dims"
      value {
        b: false
      }
    }
  }
  versions {
    producer: 24
  }
}
collection_def {
  key: "train_op"
  value {
    node_list {
      value: "GradientDescent"
    }
  }
}
collection_def {
  key: "trainable_variables"
  value {
    bytes_list {
      value: "\n\nVariable:0\022\017Variable/Assign\032\017Variable/read:02\007zeros:0"
      value: "\n\014Variable_1:0\022\021Variable_1/Assign\032\021Variable_1/read:02\tzeros_1:0"
    }
  }
}
collection_def {
  key: "variables"
  value {
    bytes_list {
      value: "\n\nVariable:0\022\017Variable/Assign\032\017Variable/read:02\007zeros:0"
      value: "\n\014Variable_1:0\022\021Variable_1/Assign\032\021Variable_1/read:02\tzeros_1:0"
    }
  }
}
